app/src/androidTest/assets/model.tflite (tflite, 758616 bytes, 10 tensors)

dense_1/bias f4 [10]
0	0x3c501652	0.012700634
1	0xbc72d959	-0.0148223275
2	0xbc27a139	-0.01023131
3	0x3b947007	0.0045299563
4	0xbcb86406	-0.022508632
5	0xbd35519d	-0.044267286
6	0xbc1c6440	-0.009545386
7	0xbc0a0e62	-0.008426281
8	0xbacc7c8d	-0.0015601084
9	0xbc9f2821	-0.019428315

dense/bias f4 [128]
0	0x3c246a33	0.0100350855
1	0x3cf97fb2	0.030456398
2	0x3d0cd512	0.034382887
3	0x3c6248f1	0.013811336
4	0xbbf6b699	-0.0075290916
5	0x3d154829	0.03644577
6	0x3ca9688e	0.020679738
7	0x3bc4f945	0.0060111606
8	0x3cb088f6	0.021549683
9	0x3c855598	0.016276166
10	0x3cfc8e1f	0.030829487
11	0xbc32a1ab	-0.010902802
12	0xbc3405de	-0.010987727
13	0xbc94b639	-0.018153297
14	0xbc86d37d	-0.016458267
15	0x3aa76d4b	0.0012773661
16	0xbb045bb0	-0.0020196252
17	0x3aae6e31	0.0013307986
18	0x3ada2d6b	0.0016645616
19	0x3c1eef9e	0.009700684
20	0xba4cba45	-0.0007809739
21	0xbcd71d4f	-0.026259093
22	0x3a505947	0.00079478737
23	0xbb5ca26d	-0.003366615
24	0xbc8833cd	-0.016626263
25	0x3b146137	0.0022640952
26	0xbc300b91	-0.010744945
27	0xbbf40ee0	-0.0074480623
28	0xbb365cc0	-0.002782628
29	0x3aa02e97	0.0012220916
30	0xbbf0253c	-0.0073286574
31	0x3cbaffe5	0.022827098
32	0x3bf7b45d	0.007559343
33	0x3ccc0e4d	0.024909163
34	0xbc50a37d	-0.012734291
35	0xbc1e2850	-0.009653166
36	0x3bdc5132	0.0067235464
37	0xbca0faba	-0.019650806
38	0xba85d782	-0.0010211321
39	0x3ce3b145	0.02779449
40	0xbae54908	-0.0017493078
41	0x3cf086d0	0.029361159
42	0xbc03590b	-0.008016835
43	0xbc2e275c	-0.010629501
44	0xbd39d6e2	-0.045370944
45	0x3cf94e91	0.030432971
46	0x3bbcfd09	0.005767469
47	0xbc4f9736	-0.012670329
48	0xbc136d88	-0.008998282
49	0x3cdc3d6c	0.026884757
50	0xbca59370	-0.020211905
51	0x3903940e	0.00012548288
52	0x3d6bac65	0.057537455
53	0x3cabe30a	0.020982284
54	0xbcb33911	-0.021877797
55	0xbc71361d	-0.014722374
56	0xba887d20	-0.0010413267
57	0xbb9eaa1b	-0.0048420555
58	0xba4e8648	-0.0007878286
59	0x3cfa9f24	0.030593462
60	0xbc060b84	-0.0081814565
61	0xbba70f7a	-0.0050982805
62	0x3d1d9723	0.038474213
63	0x3aa720a2	0.0012750814
64	0x3b00914b	0.0019617851
65	0x3c1a793c	0.009428319
66	0xbbc630ea	-0.0060483115
67	0xbc94a9d4	-0.018147387
68	0x3cc32fb4	0.023826458
69	0xbc459efa	-0.012061829
70	0xbc476517	-0.012170098
71	0x3c121931	0.008917139
72	0x3ca530e4	0.020164914
73	0xbc234c44	-0.009966914
74	0xbbbda712	-0.0057877386
75	0xbc006e2b	-0.007838766
76	0x3cb8b090	0.022545129
77	0x3add2a00	0.0016873479
78	0x3c864a27	0.01639278
79	0xb9c19c95	-0.0003692849
80	0x3bf29621	0.0074031507
81	0x3c86aa4b	0.016438624
82	0x3a3b1d28	0.00071378285
83	0x3c093d62	0.008376451
84	0x3c83bce4	0.016081281
85	0xbc07f16e	-0.008297307
86	0x3c1362ee	0.008995755
87	0xbc482445	-0.012215679
88	0xbc2515b5	-0.010075976
89	0x3c95ca6d	0.018285
90	0x3c05f8ff	0.008177041
91	0xbcbac5da	-0.022799421
92	0x3c457587	0.0120519465
93	0x3cb81aa8	0.022473648
94	0xbb79ee40	-0.0038136393
95	0xbc4081ea	-0.011749724
96	0x3ce5c2f6	0.028047066
97	0x3bf5411f	0.0074845697
98	0xbb83f9ac	-0.004027566
99	0xbb44ea1b	-0.0030046764
100	0xbcabcc26	-0.020971369
101	0xb98c91f6	-0.0002681163
102	0x3d17ecae	0.03709095
103	0xbc88d39d	-0.016702468
104	0x3d2f90a7	0.04286256
105	0x3ca6d292	0.02036408
106	0xbd185339	-0.037188742
107	0x3d041952	0.03225071
108	0xbcb0b173	-0.02156899
109	0xbbd8b429	-0.0066132736
110	0x3cd0f226	0.02550609
111	0x3bd8ec63	0.0066199764
112	0x3b00813d	0.0019608282
113	0xbc3a1d08	-0.011359461
114	0x3c68f696	0.014218947
115	0x3cbebe38	0.023284063
116	0xbb03479f	-0.0020031703
117	0x3c95c1fb	0.018280974
118	0x3cca220a	0.024674434
119	0x3c49e813	0.012323397
120	0x3c13622b	0.008995573
121	0x3cc23be6	0.023710202
122	0x3a2d0985	0.0006600845
123	0x3c7d370d	0.01545502
124	0xbc2720e8	-0.010200717
125	0x3cd88153	0.026428854
126	0xbd48c8e8	-0.049019724
127	0x3bc0f4f3	0.005888575

conv2d_2/bias f4 [64]
0	0xbc3a1842	-0.011358323
1	0xbd0b872d	-0.03406446
2	0xbd9153f6	-0.070960924
3	0xbcd0d5b4	-0.025492527
4	0xbd95c9d4	-0.07313886
5	0xbcfe2d4d	-0.03102746
6	0xbdac6915	-0.0841848
7	0xbd01acf5	-0.031659085
8	0xbd38b188	-0.045091182
9	0xbc82eb57	-0.01598136
10	0xbba0cfe4	-0.004907595
11	0xbbbfbb17	-0.0058511603
12	0xbca8bd89	-0.02059819
13	0xbcc0a4e8	-0.023516133
14	0xbc5aa5b2	-0.013345169
15	0xbd876e08	-0.06612784
16	0xbd1e62c7	-0.03866842
17	0xbd012363	-0.031527888
18	0xbd9e17f7	-0.07719415
19	0xbd48a8aa	-0.048988976
20	0xbd1fb2d0	-0.03898889
21	0xbc45ceb2	-0.012073206
22	0xbd100d4b	-0.035168927
23	0xbd0bc70d	-0.034125376
24	0xbd81bd02	-0.063348785
25	0xbd7f29a7	-0.062295582
26	0xbc18a650	-0.009316996
27	0xbdb7a911	-0.08967794
28	0xbceb001f	-0.028686581
29	0x3c86df9c	0.016464047
30	0xbcc021ca	-0.023453612
31	0xbc45017a	-0.012024278
32	0xbd219ce8	-0.039456278
33	0xbd372c35	-0.044719893
34	0xbd4d5aff	-0.05013561
35	0xbca46960	-0.020069778
36	0xbcb17f28	-0.021667078
37	0xbd1b6553	-0.037938427
38	0xbd75e98e	-0.06003719
39	0xb9bec398	-0.00036385353
40	0xbd5c4343	-0.053775083
41	0xbc2c9d31	-0.010535524
42	0xbc36ee5d	-0.011165229
43	0xbc889a05	-0.016675005
44	0x3c281793	0.010259527
45	0xbd59293b	-0.053017836
46	0xbabaa264	-0.001423907
47	0xbc989ce2	-0.018629495
48	0xbd0f0503	-0.03491689
49	0xbce37bd2	-0.027769003
50	0xbd29474c	-0.04132776
51	0xbce308f7	-0.027714236
52	0xbc5bebbc	-0.013422903
53	0xbcb514c1	-0.022104623
54	0xbcc8ed3d	-0.024527187
55	0xbca6e3d1	-0.020372303
56	0xbd488932	-0.048958965
57	0xbc9428b1	-0.01808581
58	0xbd869d77	-0.06573003
59	0xbd68760a	-0.056753196
60	0xbd2c5010	-0.04206854
61	0xbc3c1b64	-0.01148114
62	0xbca67b21	-0.020322384
63	0xbda6b260	-0.08139491

conv2d_1/bias f4 [64]
0	0xbcbbd32f	-0.022927849
1	0xbd542acd	-0.05179863
2	0x3c2045a0	0.009782225
3	0xbd1120b6	-0.035431586
4	0xbd033d85	-0.03204109
5	0xbcc81c38	-0.024427518
6	0xbc4c1700	-0.0124566555
7	0xbd07c82d	-0.033149887
8	0xbd799217	-0.060930338
9	0xba07a889	-0.0005174955
10	0xbc739c0f	-0.01486875
11	0xbcf2cf2e	-0.029639807
12	0xbc9dff58	-0.019286796
13	0xbc260f7b	-0.010135527
14	0xbcb72d1b	-0.022360375
15	0x3b6ba664	0.003595733
16	0xbd2b239e	-0.041782014
17	0xbcb9f3d8	-0.022699282
18	0xbd05ca49	-0.032663617
19	0xbd27d302	-0.040972717
20	0xbd952d7c	-0.07284066
21	0xbd1dc297	-0.038515653
22	0xbcbb75cf	-0.022883324
23	0xbceb6796	-0.028735917
24	0xbd23fcba	-0.04003594
25	0xbcbbbbd6	-0.022916716
26	0xbd15e218	-0.036592573
27	0x3c9d28ed	0.019184554
28	0xbd50cdb2	-0.050977416
29	0xbc68ecf5	-0.014216651
30	0xbd4fc8ef	-0.050728735
31	0x3c153a35	0.009108116
32	0xbcf9d65b	-0.03049772
33	0xbcbf0758	-0.023318931
34	0x3c923c23	0.017850941
35	0xbb46437c	-0.0030252626
36	0xbc8d22f0	-0.017228574
37	0xbc9ff951	-0.019528063
38	0xbc0b084c	-0.008485865
39	0xbd17ddff	-0.037076946
40	0xbd30f2d3	-0.043200325
41	0xbd427b77	-0.047481027
42	0xbce8124b	-0.028329035
43	0x3d5fa5a0	0.05460131
44	0x3d822e73	0.06356516
45	0xbc84fa87	-0.016232742
46	0xbcc741cf	-0.024323372
47	0xbc80bf6f	-0.015716283
48	0xbcd5ba49	-0.026089804
49	0xbd045e8d	-0.032316733
50	0xbce99bd9	-0.028516697
51	0xbcc18645	-0.023623595
52	0xbc65525d	-0.013996688
53	0xbd08e204	-0.03341867
54	0xbcf6d13a	-0.030129064
55	0xbc68c01b	-0.014205958
56	0xbd5ad573	-0.053426217
57	0xbd2a8714	-0.041632727
58	0xbcfc4965	-0.030796716
59	0xbd806fff	-0.062713616
60	0xbc32c1a3	-0.010910424
61	0x3c2280f1	0.009918437
62	0xbcd5a91e	-0.026081618
63	0x3c7dfaa4	0.015501652

conv2d/bias f4 [32]
0	0xbbf72cf9	-0.007543203
1	0x3a963c49	0.0011462058
2	0x3b45b7cf	0.0030169373
3	0xbb7675c3	-0.0037606813
4	0x3c5998fa	0.013281101
5	0xbcff9895	-0.031200686
6	0x3af1187c	0.0018394138
7	0xbb5cbc50	-0.003368158
8	0x3ae82197	0.0017710206
9	0xbd3c7733	-0.046012115
10	0x3c0c860e	0.008576883
11	0x3c09b4a3	0.008404884
12	0xbc0d06ff	-0.008607625
13	0x3bb42978	0.0054981075
14	0xbbe1356d	-0.006872824
15	0x3b9c68f3	0.004773253
16	0xb9f03edd	-0.00045823204
17	0x376f3645	1.4258146e-05
18	0xbcc95e23	-0.02458102
19	0xbbb1d491	-0.005426951
20	0xbad9e519	-0.0016624063
21	0xbb815a4d	-0.0039475323
22	0x3c1bfbd5	0.009520491
23	0xbb43ff40	-0.002990678
24	0xbbd74aac	-0.006570181
25	0xbc1ce4a9	-0.009576001
26	0xbd2c7b6d	-0.042109895
27	0xbc641ead	-0.013923329
28	0xbbbcd767	-0.0057629826
29	0xbc8a6f87	-0.016898884
30	0xbc2b09f5	-0.010439386
31	0xbc60d22c	-0.013721984

sequential/dense/MatMul f4 [128, 1024]
0	0xbd563f53	-0.052306484
1	0x3c2a84b3	0.0104076145
2	0xbd930a8b	-0.07179745
3	0x3d6a6bd0	0.057231724
4	0xbd919937	-0.071093015
5	0xbd5d7b15	-0.05407246
6	0xbd12346d	-0.03569453
7	0xbdc11c29	-0.09429199
8	0x3d8c910a	0.068636015
9	0xbd8efd54	-0.06981912
10	0xbdc9056b	-0.098154865
11	0xbdf39722	-0.11894061
12	0xbcef7f21	-0.029235424
13	0x3aa60556	0.0012666385
14	0x3d4187ff	0.047248837
15	0xbd2371af	-0.03990334
16	0xbd906b4f	-0.070517175
17	0xbc5fb919	-0.013654971
18	0xbdca5bcb	-0.09880789
19	0xbcf4ecfb	-0.029898157
20	0xbd7459cd	-0.059655953
21	0x3d15991a	0.036522962
22	0x3ce126c6	0.027484309
23	0x3bd52e3e	0.0065057566
24	0xbd00d4e9	-0.031453047
25	0xbb415fa8	-0.0029506478
26	0x3caf1635	0.021372894
27	0xbc52073f	-0.01281911
28	0x3bc6f803	0.006072046
29	0x3cc448be	0.023960467
30	0xbdc1afab	-0.09457334
31	0xbd3f164f	-0.046652135
32	0x3d7f33f4	0.062305406
33	0xbce6117a	-0.028084505
34	0x3d2c78e3	0.042107474
35	0x3c5c41e8	0.013443448
36	0x3d490e39	0.04908583
37	0x3d2b44f1	0.041813795
38	0xbc8848c4	-0.01663626
39	0xbd7a8176	-0.06115862
40	0xbcb7e2c7	-0.022447003
41	0xbdc6c1d3	-0.09704938
42	0xbd770dc8	-0.060315877
43	0xbdc2b4d3	-0.09507146
44	0x3aa2c13c	0.0012417207
45	0xbc5a8e7f	-0.013339638
46	0x3b8a2952	0.0042163515
47	0x3dd3939d	0.103308894
48	0x3d06ecee	0.032940798
49	0x3cc2ae11	0.023764642
50	0x3d143b19	0.036189172
51	0x3d64ee87	0.05589154
52	0xbdd5153e	-0.10404442
53	0xbd5b21d5	-0.05349906
54	0xbd13ae57	-0.036054935
55	0xbb1773a9	-0.002310971
56	0xbd80c2f2	-0.06287183
57	0x3ca01fbd	0.019546384
58	0x3d16b95f	0.036797877
59	0x3d528440	0.051395655
60	0xbc3d2e30	-0.0115466565
61	0x3d059c60	0.032619834
62	0xbdde8295	-0.1086475
63	0xbbeef06b	-0.0072918436
64	0x3b8e6224	0.0043451954
65	0x3d045a0e	0.032312445
66	0xbd4fbcef	-0.05071729
67	0x3e03eaa1	0.12882473
68	0xbdc043de	-0.09387945
69	0x3d5c1862	0.05373419
70	0xbdb4af72	-0.08822526
71	0x3d2936a8	0.04131189
72	0xbdbf0a06	-0.09328084
73	0xbc849155	-0.016182581
74	0xbd8e892f	-0.069597594
75	0xbdccaef8	-0.0999431
76	0xbd7ca1b2	-0.061677642
77	0xbd92771d	-0.07151625
78	0x3c41e2c7	0.011833853
79	0x3d8f0dbf	0.06985044
80	0xbe12dc5e	-0.14341876
81	0x3dc90787	0.09815889
82	0x3d51515c	0.05110298
83	0x3a77fec2	0.0009460264
84	0x3cc69352	0.02424017
85	0xbd1f892e	-0.038949184
86	0x3d93f837	0.072250776
87	0x3d52c8bb	0.051460963
88	0x3d24b038	0.040207118
89	0xbdc8eab8	-0.09810394
90	0x3deed973	0.11662569
91	0x3cf3021a	0.029664088
92	0xbdbc4e2c	-0.091945976
93	0x3c317c0e	0.0108328
94	0x3caa1097	0.020759864
95	0x3c3114f7	0.010808221
96	0xbd02adab	-0.031903904
97	0xbd16595a	-0.036706306
98	0x3c58af34	0.013225365
99	0xbce068bf	-0.027393697
100	0x3d3c2db0	0.04594201
101	0x3a032b7f	0.0005003735
102	0xbc563feb	-0.013076763
103	0x3d5695db	0.052389007
104	0x3c838758	0.016055748
105	0xbda11b5b	-0.07866546
106	0xbcc84a5c	-0.02444952
107	0xbd0dd629	-0.034628067
108	0xbb1d6cfa	-0.0024021254
109	0xbdec3b42	-0.1153474
110	0x3d53dc26	0.05172362
111	0x3d8e6437	0.06952708
112	0xbd58f6bd	-0.052969683
113	0x3d0e9501	0.03481007
114	0xbd170120	-0.036866307
115	0xbd8bcac0	-0.06825781
116	0x3cb73828	0.022365645
117	0x3d9f6e22	0.07784678
118	0xbcd02ea9	-0.025412874
119	0xbc589a6a	-0.013220409
120	0x3d029637	0.031881537
121	0x3ba012b9	0.0048850444
122	0x3c2e2166	0.01062808
123	0x3ba22041	0.0049476926
124	0xbd472b0f	-0.04862505
125	0xbd76e538	-0.060277194
126	0xbc3521dc	-0.011055436
127	0x3d3574c2	0.044300802
128	0xbd8edf39	-0.0697617
129	0x3c346e0d	0.011012566
130	0xbdb8665a	-0.09003897
131	0x3c98b55f	0.018641172
132	0x3a72672f	0.0009246943
133	0x3cfcf1eb	0.030877074
134	0x3d4a9771	0.049460832
135	0x3de3250d	0.11091051
136	0x3ca77b42	0.020444516
137	0x3c2d60c0	0.010582149
138	0xb9e75579	-0.00044123436
139	0xbda4dcb6	-0.0804991
140	0xbe47b43b	-0.19502346
141	0x3ca17830	0.01971063
142	0xbdc1f704	-0.094709426
143	0xbc120284	-0.008911733
144	0xbd022e6e	-0.03178256
145	0xbdb4d586	-0.08829789
146	0xbd78a483	-0.060703766
147	0x3c0ed46b	0.008717637
148	0x3c879b88	0.016553655
149	0xbd598161	-0.0531019
150	0xbbdd0f72	-0.006746226
151	0xbde449c4	-0.11146882
152	0xbdfa5f1f	-0.12225174
153	0x3d593451	0.05302841
154	0x3dfa6390	0.12226021
155	0x3b0c87d5	0.0021443267
156	0xbd1c0a7e	-0.038095944
157	0xbc644238	-0.013931803
158	0xbcf67756	-0.0300862
159	0xbc28b476	-0.0102969315
160	0xbcd463aa	-0.02592643
161	0xbd656202	-0.05600167
162	0xbe016853	-0.12637453
163	0xbc16ef8e	-0.009212388
164	0xbca1754e	-0.019709256
165	0x3da81fa9	0.08209164
166	0xbcd1b2fa	-0.025598038
167	0x3d545e74	0.05184789
168	0xbd767b1e	-0.060176007
169	0xbdbc16d3	-0.09184041
170	0xbd8f3615	-0.06992737
171	0xbc71f71c	-0.014768388
172	0xbd34e4a9	-0.04416338
173	0x3daa1b2a	0.083059624
174	0x3c21f1e5	0.009884332
175	0xbcaf5b0f	-0.021405725
176	0xbc9b368e	-0.018946912
177	0xbdd43fed	-0.103637554
178	0xbc2ae3a9	-0.010430255
179	0x3cc6f096	0.024284642
180	0xbd22e6ef	-0.039771017
181	0x3d1fefc6	0.039047025
182	0x3d23bbc5	0.039973993
183	0xbcb31da6	-0.021864723
184	0x3dc02976	0.09382908
185	0x3c98cf0c	0.018653415
186	0x3cbcb242	0.023034219
187	0xbb893d80	-0.0041882396
188	0x3bd8b8ef	0.0066138427
189	0xbd96d82a	-0.07365449
190	0x3da37cbb	0.07982775
191	0xbd88dce8	-0.066827595
192	0x3d8448f1	0.06459225
193	0xbc067b55	-0.008208116
194	0xbe0490f6	-0.12945923
195	0x3d2b728c	0.041857287
196	0xbdc9caee	-0.09853159
197	0xbc0f77a3	-0.008756551
198	0xbbc1d63f	-0.0059154327
199	0x3dcda174	0.1004056
200	0x3cbac3d0	0.022798449
201	0x3c57fa0d	0.013182175
202	0x3cccab0c	0.024983905
203	0xbc1ca0a2	-0.009559782
204	0xbdbde0fe	-0.092714295
205	0xbd66ad2c	-0.056317493
206	0xbd9b51f2	-0.07583989
207	0x3c712540	0.014718354
208	0xbd691e0d	-0.056913424
209	0xbd92275a	-0.07136412
210	0xbd863023	-0.0655215
211	0x3d6ec701	0.058295254
212	0x3d2ca6b6	0.042151175
213	0xbdb9149a	-0.090371326
214	0x3d3e3652	0.046438523
215	0xbd8c2298	-0.06842536
216	0xb642eb47	-2.9045202e-06
217	0xbd2a4b3b	-0.04157565
218	0xbd86089b	-0.0654461
219	0xbe04fc49	-0.12986864
220	0xbceaa1e1	-0.028641643
221	0x3db756cd	0.08952103
222	0x3c7dfd28	0.015502252
223	0xbd2ee3d8	-0.042697757
224	0xbc201b07	-0.009772069
225	0x3cec316a	0.028832156
226	0xbd4aba2a	-0.049493946
227	0x3c34ff58	0.011047207
228	0xbd6928da	-0.056923725
229	0x3d796171	0.060883943
230	0x3d3c5a27	0.045984413
231	0x3c5fd8ff	0.013662576
232	0x3ccae1d5	0.024765888
233	0xbc4dbc66	-0.012557125
234	0x3c260d69	0.010135033
235	0xbce5d63a	-0.028056253
236	0xbd442947	-0.047890928
237	0x3c8d1930	0.017223924
238	0x3dd2eac6	0.10298686
239	0xbd87b329	-0.06625969
240	0xbcf85984	-0.030316122
241	0x3a29b13a	0.0006473247
242	0x3d8430bb	0.06454607
243	0x3b815cfa	0.0039478512
244	0x3bbcdf9a	0.00576396
245	0xbe3309af	-0.17484163
246	0x3dc858ba	0.09782548
247	0xbd050c4c	-0.03248243
248	0xbc4e20ef	-0.012581094
249	0x3da32c31	0.07967413
250	0xbdb0bbc3	-0.08629563
251	0xbc9d077e	-0.019168612
252	0xbd22b335	-0.039721686
253	0x3e1da29c	0.15394062
254	0x3d790e0f	0.060804423
255	0xbdcdc591	-0.100474484

sequential/dense_1/MatMul f4 [10, 128]
0	0xbe00490b	-0.12527864
1	0xbe9a2a0c	-0.30110204
2	0xbe0a6151	-0.13513686
3	0xbe42faeb	-0.1904103
4	0x3c368689	0.011140474
5	0x3e5b0aab	0.21390788
6	0xbecaed5a	-0.3963421
7	0xbe25e4f1	-0.16200615
8	0xbeb19582	-0.34684378
9	0xbe2b5a71	-0.1673372
10	0x3e1b01b0	0.15137362
11	0xbd88acc8	-0.066735804
12	0x3e489737	0.19588934
13	0x3dcb6a7a	0.09932418
14	0xbe7e6d1b	-0.24846308
15	0x3e29395d	0.16525789
16	0xbc310ba5	-0.010805999
17	0xbc93a729	-0.018024044
18	0xbdc73932	-0.09727706
19	0xbd100c40	-0.035167933
20	0xbe82551d	-0.2545556
21	0x3cfe4c0e	0.031042125
22	0x3dc177ad	0.094466545
23	0x3e3f4534	0.18678743
24	0xbe880b4f	-0.26571128
25	0x3d80a53c	0.06281516
26	0xbd710d05	-0.058850307
27	0xbee719ab	-0.4513677
28	0xbe20e0bc	-0.1571073
29	0xbdde4c08	-0.108543456
30	0xbe30c67a	-0.17263213
31	0x3e105504	0.14094931
32	0xbe766a43	-0.24063973
33	0xbd3a85fb	-0.04553793
34	0xbdbb8f7f	-0.09158229
35	0xbec0912e	-0.37610763
36	0xbe869ed7	-0.2629306
37	0xbe9771fa	-0.29579145
38	0xbe9d6287	-0.30739233
39	0x3dd57045	0.10421804
40	0xbe99f2c6	-0.30068034
41	0x3e0c530d	0.13703556
42	0xbeaac606	-0.33354205
43	0x3e870978	0.26374412
44	0xbe0b4e08	-0.13603985
45	0x3e19e12b	0.15027301
46	0xbe0a0507	-0.1347848
47	0xbd703ff5	-0.058654744
48	0xbe84151d	-0.25797358
49	0x3e86d54c	0.26334608
50	0xbdbf6dea	-0.09347136
51	0x3d230975	0.03980394
52	0x3e2411d4	0.16022426
53	0x3d957961	0.07298542
54	0xbe2ceef9	-0.16888036
55	0xbe6a5457	-0.22883736
56	0xbd73ba65	-0.05950393
57	0xbe27c44d	-0.16383477
58	0x3d324a55	0.04352792
59	0xbda86a91	-0.08223451
60	0x3e7f7a3b	0.24948971
61	0x3d2aa4c9	0.041661058
62	0x3e1d2493	0.15345983
63	0xbe570f1a	-0.21001855
64	0x3d3e95e9	0.046529684
65	0x3e355981	0.17709924
66	0xbc94ff65	-0.018188188
67	0x3e60cdc5	0.21953495
68	0xbc58c3d3	-0.013230282
69	0xbc527826	-0.012846028
70	0x3d89ac9f	0.06722378
71	0x3e619878	0.22030818
72	0x3d56fde1	0.05248821
73	0xbe524840	-0.20535374
74	0xbe4d3ef4	-0.20043546
75	0xbe590d8f	-0.21196578
76	0xbdc947d1	-0.09828151
77	0x3e5c83e5	0.21534689
78	0xbd885512	-0.06656851
79	0x3e0e5e56	0.13903174
80	0xbea26015	-0.3171393
81	0x3dffa387	0.12482362
82	0x3ddb21ae	0.10699783
83	0x3e35bf98	0.17748868
84	0xbddca228	-0.10773116
85	0x3dcdba41	0.10045291
86	0x3e25fe2c	0.1621024
87	0xbe4a8963	-0.19778971
88	0x3df7c79b	0.120986186
89	0xbda6a3e9	-0.08136732
90	0x3e3559dc	0.1771006
91	0xbce5b10c	-0.028038524
92	0xbdfb2263	-0.12262418
93	0x3e80e44e	0.25174183
94	0xbe5f1011	-0.21783473
95	0x3e411e16	0.18859133
96	0xbe8a7428	-0.27041745
97	0x3da32312	0.079656735
98	0xbc3914e7	-0.011296487
99	0xbe4fab36	-0.20280156
100	0xbdc1ebef	-0.09468829
101	0xbe41e60e	-0.18935415
102	0x3e96fa16	0.29487675
103	0xbdc0a46f	-0.09406363
104	0x3deca6da	0.11555262
105	0x3e237d47	0.15965758
106	0xbe8a6830	-0.27032614
107	0x3d094945	0.03351714
108	0xbe4f6617	-0.20253788
109	0xb9513816	-0.00019952687
110	0x3a833a8f	0.0010011959
111	0x3e4192e6	0.18903694
112	0xbeaae31f	-0.33376405
113	0xbdc7fcf5	-0.097650446
114	0xbe85ea7b	-0.26155457
115	0xbdd899a1	-0.105761774
116	0x3e5832d3	0.21113138
117	0xbe6e4c07	-0.2327119
118	0x3e70b8de	0.23508021
119	0x3e2d234c	0.16907996
120	0xbd4065f5	-0.046972234
121	0x3dbbcbf4	0.0916976
122	0x3e23ee85	0.16008957
123	0x3e70d8f1	0.23520257
124	0xbe8a5dfc	-0.2702483
125	0x3d1095ae	0.035298996
126	0x3ddc56a5	0.10758714
127	0xbe9343c3	-0.28762636
128	0xbe8357d8	-0.25652957
129	0xbee553e4	-0.44790566
130	0xbea5ee8d	-0.32408562
131	0xbe01984a	-0.1265575
132	0xbe2feccb	-0.17180173
133	0xbe5b6630	-0.214257
134	0xbe5042d0	-0.20337987
135	0xbe5bc4c1	-0.21461774
136	0x3d5aecef	0.053448614
137	0xbe6bc3eb	-0.23023956
138	0x3d10c081	0.035339836
139	0xbd73968e	-0.059469752
140	0x3e27c76a	0.16384664
141	0xbe25d9a7	-0.16196309
142	0x3d9cef2b	0.07662805
143	0x3e518b1a	0.2046322
144	0x3dadafa3	0.08480766
145	0x3e76917c	0.24078935
146	0xbe473550	-0.19453931
147	0x3e02fc33	0.12791519
148	0xbd3dfc15	-0.046382982
149	0x3dc44273	0.09582987
150	0xbe674d8b	-0.22588174
151	0x3cd9faae	0.026608791
152	0x3e8230d7	0.25427887
153	0xbe00c190	-0.12573838
154	0xbe36246b	-0.1778733
155	0xbe9f1058	-0.31067157
156	0xbea7fb77	-0.3280904
157	0xbe73c77e	-0.23806569
158	0xbebce50f	-0.36893508
159	0xbd168502	-0.03674794
160	0xbc170dac	-0.009219568
161	0x3d867fd8	0.06567353
162	0x3d9ca384	0.07648376
163	0xb8332a07	-4.2716067e-05
164	0xbd8bdda0	-0.06829381
165	0x3dc04c15	0.093895115
166	0x3e827a34	0.2548386
167	0xbd49a4b8	-0.049229354
168	0x3e767b6f	0.24070524
169	0x3e04bbe2	0.12962297
170	0xbd0f4018	-0.034973234
171	0xbdfb6496	-0.122750446
172	0x3e339ff7	0.1754149
173	0x3c417daa	0.011809746
174	0x3e15b897	0.14621197
175	0xbe7bfc6d	-0.24608012
176	0x3dd98206	0.10620503
177	0xbe16447e	-0.14674565
178	0xbe1b6651	-0.1517575
179	0xbe1ba65d	-0.15200181
180	0x3df08910	0.117448926
181	0x3e1cee42	0.15325263
182	0x3e549375	0.20759375
183	0x3e00bacc	0.12571257
184	0x3dc35e2e	0.09539448
185	0x3e9107e0	0.2832632
186	0x3d80aa15	0.062824406
187	0xbeb55d5a	-0.35422784
188	0xbe8e3eff	-0.27782437
189	0xbe5d2b14	-0.21598464
190	0xbe0a0a3e	-0.1348047
191	0xbe1a6529	-0.15077652
192	0xbbf6632b	-0.007519146
193	0xbe8c13a9	-0.2735875
194	0x3dc371f2	0.09543218
195	0xbe3ad528	-0.18245375
196	0x3e824d3c	0.2544955
197	0xbe67c592	-0.22633961
198	0xbd2ba88e	-0.041908793
199	0x3e44e5a5	0.19228227
200	0x3e08a175	0.13342841
201	0xbd1551b4	-0.03645487
202	0xbe3b9298	-0.1831764
203	0xbeaf1db0	-0.34202337
204	0xbe379fda	-0.17932072
205	0x3d9fecf1	0.07808865
206	0x3e34e295	0.17664559
207	0x3e88d0de	0.26721853
208	0x3d039f34	0.03213425
209	0xbdd122f2	-0.102117434
210	0x3e47ea06	0.19522867
211	0xbe814f8f	-0.2525601
212	0xbe210e81	-0.15728189
213	0x3dbe3629	0.09287674
214	0x3d68ea4a	0.05686406
215	0x3b0f7a59	0.0021892993
216	0x3cfeb1a3	0.031090563
217	0xbe55675f	-0.20840214
218	0xbe41e961	-0.18936683
219	0xbe2a4a00	-0.16629791
220	0x3e2ec640	0.17067814
221	0x3e386543	0.18007378
222	0xbe74fe92	-0.23925236
223	0x3e70255b	0.2345175
224	0xbe0fe50e	-0.14052221
225	0xbe5a56d4	-0.21322185
226	0xbe59c105	-0.21265037
227	0x3dcca5e2	0.09992577
228	0xbd8fa54b	-0.07013949
229	0xbe0ba546	-0.13637266
230	0x3c87d5ea	0.016581494
231	0xbe8af839	-0.27142504
232	0xbe0074bb	-0.12544529
233	0xbd30fe7e	-0.043211453
234	0x3e187c4e	0.14891168
235	0xbdbd221b	-0.09235021
236	0x3e22b10b	0.15887849
237	0xbe0135d1	-0.12618186
238	0x3d11c990	0.035592616
239	0xbe5da8f9	-0.21646489
240	0xbe37659c	-0.17909855
241	0x3e4250fa	0.18976203
242	0x3e323eff	0.17406844
243	0xbea78d2d	-0.32724896
244	0xbe4d755c	-0.200643
245	0xbd158c28	-0.036510617
246	0xbe0430e7	-0.1290928
247	0xbe064d96	-0.13115534
248	0xbec097c4	-0.37615788
249	0x3d13399b	0.03594361
250	0xbd81a170	-0.0632962
251	0xbe956ba7	-0.29183695
252	0xbddb9337	-0.107214384
253	0xbe682b2c	-0.22672719
254	0x3e650737	0.22366033
255	0xbef41de1	-0.47679046

sequential/conv2d/Conv2D f4 [32, 5, 5, 1]
0	0x3cff079c	0.031131558
1	0x3da22291	0.07916749
2	0x3c983890	0.018581659
3	0x3ddbf559	0.10740156
4	0xbcbbb28e	-0.02291229
5	0x3ddc6ca4	0.10762909
6	0x3d8e5dd2	0.069514886
7	0x3de149fb	0.11000439
8	0xbc2e3928	-0.010633744
9	0x3e0a393c	0.13498396
10	0x3d9f0a16	0.077655956
11	0xbce568f9	-0.028004156
12	0xbc5a84a5	-0.013337289
13	0x3d14c156	0.036317192
14	0x3df00f35	0.117216505
15	0x3d808322	0.062750116
16	0xbd3fdc0e	-0.04684072
17	0xbd92388a	-0.0713969
18	0x3d9e7acf	0.07738268
19	0xbd7ba97a	-0.061440922
20	0xbdc402bf	-0.09570836
21	0xbe367154	-0.17816669
22	0xbdf7e17b	-0.12103554
23	0xbdc96021	-0.09832788
24	0xbc26a80a	-0.0101719
25	0x3d886bc8	0.06661183
26	0x3dc77fd2	0.09741177
27	0xbd1ccb86	-0.038280033
28	0x3c6dc568	0.014512397
29	0xbd23952f	-0.039937194
30	0x3df9b873	0.12193384
31	0x3d968f50	0.073515534
32	0x3c25fee9	0.010131576
33	0xbd9ddb48	-0.0770784
34	0xbd40132f	-0.046893295
35	0x3d1ddd0d	0.03854089
36	0x3dcebfcc	0.10095176
37	0x3db63fae	0.08898865
38	0xbdfc0c1f	-0.123069994
39	0xbe0c3d53	-0.13695268
40	0x3dc5e234	0.096622854
41	0x3d9fd3fd	0.078041054
42	0xbc57aee3	-0.013164255
43	0xbda7eaf2	-0.08199109
44	0xbe4dca19	-0.20096625
45	0x3dbccdb2	0.09218921
46	0x3da71ce6	0.08159809
47	0x3dc54167	0.09631615
48	0xbdd0cf94	-0.101958424
49	0xbd506f70	-0.050887525
50	0x3d62b5f4	0.055349305
51	0x3d9a35b8	0.07529777
52	0x3d8310cd	0.06399689
53	0x3da3b808	0.079940856
54	0xbd3e76ff	-0.046500202
55	0x3d047852	0.03234131
56	0x3caa8592	0.020815644
57	0xbba7658f	-0.0051085423
58	0xbc3639a8	-0.011122145
59	0x3e21f2c5	0.15815265
60	0x3ac384c4	0.0014916887
61	0xbd8a9ea3	-0.06768539
62	0x3d0a7a27	0.0338079
63	0x3d8690f3	0.065706156
64	0x3db08bf4	0.08620444
65	0xbe2c9219	-0.16852607
66	0xbdb69c24	-0.089165
67	0x3bfba45b	0.007679505
68	0xbdc22f87	-0.09481721
69	0xbda342b0	-0.07971704
70	0xbd648986	-0.055795215
71	0xbda7d46c	-0.08194813
72	0xbd11b9cf	-0.03557759
73	0xbd35599a	-0.044274904
74	0x3d834d6c	0.064112514
75	0xbd6a5de8	-0.057218462
76	0xbe3729e5	-0.17887075
77	0xbe1a53d9	-0.15071048
78	0xbe379244	-0.1792689
79	0xbde5c235	-0.11218683
80	0xbdc1df92	-0.09466471
81	0x3d2b6f69	0.041854296
82	0x3d6bde56	0.057585083
83	0x3baf1bbb	0.005343882
84	0xbc7e204f	-0.015510633
85	0xbca5e9a3	-0.020253008
86	0x3daa467b	0.08314224
87	0x3e07c9df	0.13260601
88	0x3d99b776	0.075056955
89	0xbc0496b6	-0.008092573
90	0xbc194d33	-0.009356785
91	0x3ce0900e	0.02741244
92	0x3dce6e38	0.10079616
93	0x3dc57424	0.09641293
94	0x3dc8d271	0.098057635
95	0x3dabfb1e	0.08397506
96	0xbd054cc8	-0.032543927
97	0xbd941122	-0.0722983
98	0x3d0ff918	0.035149664
99	0x3dc2a361	0.09503818
100	0x3b8a6780	0.004223764
101	0xbd1a2d22	-0.0376407
102	0x3dc14618	0.094371974
103	0x3d6f15e9	0.058370505
104	0x3d5872f0	0.052843988
105	0xbd41891b	-0.047249895
106	0xbdbf4007	-0.09338384
107	0x3dc43286	0.09579949
108	0x3e121c52	0.14268616
109	0x3e105927	0.14096509
110	0xbdba73a4	-0.09104088
111	0xbda6d1dd	-0.08145497
112	0xbd9553f1	-0.07291401
113	0xbc8ae571	-0.01695511
114	0x3dc2c9e1	0.095111616
115	0xbe35081c	-0.17678875
116	0xbe1a1f61	-0.15051033
117	0x3d0073a5	0.031360287
118	0xbbf94542	-0.007607133
119	0x3d26e1c8	0.040742666
120	0x3c17c91d	0.009264258
121	0xbdc106e8	-0.094251454
122	0xbd51437b	-0.051089745
123	0x3dd7249f	0.10505032
124	0xbc01b04c	-0.007915568
125	0xbe384ff1	-0.17999245
126	0xbe02b228	-0.12763274
127	0xbbb1a748	-0.005421553
128	0xbdd67100	-0.10470772
129	0x3d387a21	0.045038346
130	0xbc8b97e3	-0.017040199
131	0xbb403f5f	-0.0029334647
132	0xbd73a033	-0.05947895
133	0x3c225311	0.0099075
134	0xbc971f0e	-0.018447425
135	0xbc9c22b8	-0.019059524
136	0x3cc1d652	0.023661766
137	0x3d397ab3	0.04528303
138	0xbcdb9689	-0.02680518
139	0xbd3e2f50	-0.04643184
140	0x3ac50c19	0.0015033513
141	0xbc92d06a	-0.017921645
142	0x3d9bf081	0.07614232
143	0x3e05d997	0.13071285
144	0xbc68dc09	-0.014212617
145	0x3dbf8b38	0.09352726
146	0x3dc82b33	0.097738646
147	0x3de98499	0.11402244
148	0x3d7afc77	0.061275925
149	0x3d09126f	0.033464845
150	0x3cc51981	0.024060013
151	0xbdc970ea	-0.0983599
152	0xbe3edd37	-0.18639074
153	0xbdf05449	-0.11734826
154	0xbd52ac5f	-0.051433917
155	0xbe0385bb	-0.12843983
156	0xbda16cac	-0.07882056
157	0xbbdd8581	-0.0067602997
158	0x3cd6b8c5	0.026211152
159	0xbc3d4644	-0.011552397
160	0xbd88e9ec	-0.06685242
161	0x3d28c2db	0.041201454
162	0x3d48bc5c	0.04900776
163	0x3cf41588	0.029795423
164	0x3cff16c1	0.03113878
165	0x3d0d3fe3	0.034484755
166	0x3e1b0d10	0.15141702
167	0x3d75ebe7	0.060039427
168	0x3d31ffc2	0.0434568
169	0x3dcabcf1	0.09899319
170	0xbd1a0185	-0.037599105
171	0x3da7666c	0.08173832
172	0x3d3fb070	0.046799123
173	0x3d98ea5c	0.074665755
174	0xbcc50910	-0.024052173
175	0x3dc9dab0	0.098561645
176	0x3dbf2f3f	0.09335183
177	0x3d8ac0d8	0.06775063
178	0x3e52e48a	0.20594993
179	0x3db45c7e	0.08806704
180	0xbd7289d8	-0.05921349
181	0x3dead93f	0.11467218
182	0x3def4926	0.11683874
183	0x3b70181b	0.0036635462
184	0x3e0c5ff7	0.13708483
185	0xbd89960a	-0.06718071
186	0xbd9602a5	-0.07324723
187	0xbd97b67f	-0.07407855
188	0x3dd207c4	0.102553874
189	0xbd026ec5	-0.03184392
190	0x3c808740	0.015689492
191	0xbe081ab0	-0.1329143
192	0xbd81aed5	-0.06332175
193	0xbcb6d8fd	-0.022320265
194	0xbcd7bc56	-0.026334923
195	0xbdca3586	-0.0987349
196	0xbc3bec63	-0.011469933
197	0xbd8bd1cf	-0.06827127
198	0xbdf1c5c2	-0.118052974
199	0xbda511df	-0.08060049
200	0xbd456dd0	-0.04820043
201	0x3d4dd3b5	0.050250728
202	0xbd7e232d	-0.062045265
203	0x3dc3bc1c	0.095573634
204	0x3da6862d	0.08131061
205	0x3d290ed6	0.041273914
206	0xbdbb69a3	-0.09151008
207	0xbd5ffc8f	-0.054684218
208	0x3da75376	0.08170216
209	0xbd73c6fc	-0.05951594
210	0x3d985db6	0.07439749
211	0xbdb55275	-0.08853618
212	0xbdf9b31c	-0.121923655
213	0xbc3325b8	-0.010934286
214	0x3d1aacdf	0.03776252
215	0xbc1323a8	-0.008980669
216	0x3d8c87ac	0.06861815
217	0xbc4e49cc	-0.012590837
218	0xbe09d5a3	-0.13460402
219	0xbccf9398	-0.025338933
220	0x3e157868	0.14596713
221	0x3e18075d	0.14846559
222	0x3d22c038	0.039734095
223	0xbd89afe0	-0.067229986
224	0xbbfba476	-0.0076795174
225	0xbd647cc2	-0.05578304
226	0x3d282226	0.04104819
227	0x3bbf12dd	0.005831106
228	0xbd3b14b6	-0.04567405
229	0x3d1ed626	0.038778447
230	0x3c0ce4e7	0.008599496
231	0xbdc325be	-0.09528683
232	0xbd85d74a	-0.06535204
233	0xbbd48deb	-0.0064866445
234	0x3cf092a9	0.029366808
235	0x3b80e179	0.0039331284
236	0x3d2a17ac	0.04152648
237	0x3c4b1182	0.012394311
238	0x3db93d91	0.09044946
239	0x3d272702	0.040808685
240	0xbc0c16bb	-0.008550341
241	0xbcb029dc	-0.021504335
242	0x3d8ac1ac	0.06775221
243	0x3de45a48	0.11150032
244	0x3ca2a442	0.019853715
245	0x3d6d5c6c	0.05794947
246	0x3a87a3d0	0.0010348503
247	0x3d261bea	0.040553965
248	0x3dc1213a	0.094301656
249	0x3d7d62c2	0.06186176
250	0xbdf50392	-0.119635716
251	0xbdf08696	-0.1174442
252	0xbcbbd11f	-0.022926865
253	0xbcf9cc60	-0.030492961
254	0xbc9a43e9	-0.01883121
255	0xbc4a01c2	-0.012329521

sequential/conv2d_1/Conv2D f4 [64, 3, 3, 32]
0	0xbbcf6778	-0.006329473
1	0x3d0ad765	0.033896822
2	0x3df4ab5f	0.11946749
3	0xbdb3a4de	-0.0877168
4	0xbcc5befe	-0.024138924
5	0x3ca0f206	0.019646656
6	0x3ceeb269	0.029137807
7	0x3ce621bf	0.028092263
8	0xbc615b20	-0.013754636
9	0xbcbe3c1e	-0.023222025
10	0x3ca203ab	0.01977714
11	0xbdf4b75e	-0.11949037
12	0xbcefa2cf	-0.029252438
13	0xbcb89cbb	-0.022535672
14	0xbdb6f5b8	-0.08933586
15	0x3ce3a2d2	0.0277876
16	0x39961e7f	0.0002863295
17	0xbcb0767e	-0.021540876
18	0xbdb62c32	-0.08895148
19	0xbc87a404	-0.016557701
20	0x3d26af03	0.040694248
21	0x3d59a4f0	0.053135812
22	0x3da6c637	0.08143275
23	0x3d1aa0d4	0.037751034
24	0xbce366d4	-0.027758993
25	0xbda635a1	-0.08115698
26	0xbd90b258	-0.07065266
27	0xbdbb0605	-0.091320075
28	0xbd8b1728	-0.06791526
29	0xbd0a6e7b	-0.03379677
30	0xbd916f33	-0.07101288
31	0x3d6fb7be	0.05852484
32	0x3d34585f	0.04402959
33	0x3cbe3568	0.023218825
34	0x3e20f12b	0.15716998
35	0xbdf18eac	-0.117947906
36	0x3d8d9bd8	0.069144905
37	0xba61ba30	-0.0008610813
38	0xbdb68f36	-0.08914034
39	0x3d43b359	0.04777846
40	0x3d65b20d	0.056078006
41	0xbddf819d	-0.10913394
42	0xbb87a768	-0.0041398294
43	0xbd2c60b4	-0.04208441
44	0x3d0871b0	0.033311546
45	0x3d131c54	0.035915688
46	0xbb693176	-0.003558246
47	0xbc4954e5	-0.012288307
48	0xbd46e7a1	-0.048560742
49	0xbdea4d25	-0.114404954
50	0xbdade731	-0.08491362
51	0xbcc177f4	-0.023616768
52	0x3d1365c0	0.03598571
53	0x3e2d184d	0.16903801
54	0xbd117e85	-0.03552105
55	0xbb288d56	-0.0025719008
56	0x3c22d1f2	0.00993775
57	0xbd521423	-0.051288735
58	0xbcb64ca3	-0.02225334
59	0xbd88d78d	-0.06681738
60	0x3cc53988	0.024075285
61	0xbde2c75c	-0.11073181
62	0xbddbb433	-0.1072773
63	0x3c850bc3	0.01624096
64	0x3da1d57b	0.07902046
65	0xbde0d7d4	-0.10978666
66	0x3d0ef6d8	0.034903377
67	0x3d1f59e1	0.038904075
68	0x3c991e50	0.018691212
69	0xbddf496d	-0.10902677
70	0xbce6c017	-0.028167767
71	0x3e0e3b78	0.13889873
72	0xbd1eb891	-0.038750235
73	0x3c03144a	0.008000443
74	0x3d019df9	0.031644795
75	0xbdba6761	-0.09101749
76	0xbd282aae	-0.041056328
77	0xbcca607c	-0.02470421
78	0xbcaf4055	-0.02139298
79	0xbcab5a86	-0.020917188
80	0xbd506f8f	-0.05088764
81	0x3a9f8d9f	0.0012172944
82	0xbde9ef2a	-0.1142257
83	0xbd188da7	-0.037244465
84	0x3cf143de	0.029451307
85	0x3e0c659d	0.13710637
86	0x3c5c57ac	0.013448637
87	0x3e0ef2e8	0.13959849
88	0xbc2e41c4	-0.010635797
89	0xbbcccda8	-0.006250102
90	0xbd9126c6	-0.070874736
91	0xbccf4d19	-0.025305318
92	0x3cb1a75c	0.021686248
93	0xbd7c0c4e	-0.061535172
94	0xbd838a31	-0.06422842
95	0x3ccffe8a	0.025389928
96	0xbb9466e0	-0.004528865
97	0xbd4ca18e	-0.049958758
98	0x3cd59364	0.026071258
99	0x3d699930	0.057030857
100	0x3d8bcdf1	0.068263896
101	0x3d89608f	0.0670787
102	0x3e1613f2	0.14656046
103	0x3d875809	0.06608588
104	0x3de1a457	0.110176735
105	0x3de46c49	0.11153466
106	0x3d9f0777	0.07765096
107	0x3d373c98	0.04473552
108	0xbcd12a13	-0.025532758
109	0xbd71c41d	-0.05902492
110	0x3ccdfe92	0.025145803
111	0x3d905c7c	0.0704889
112	0x3da3ac4e	0.07991849
113	0xbdc0d64e	-0.094158754
114	0x3ceb07bb	0.02869021
115	0x3e1657e0	0.14681959
116	0x3d1e5233	0.03865261
117	0xbbd0c0a7	-0.006370622
118	0xbd5196d4	-0.05116923
119	0x3c6de2e5	0.014519428
120	0xbd846dcb	-0.06466254
121	0x3dbeca33	0.0931591
122	0xbd3b65da	-0.04575143
123	0x3d5f97cb	0.05458812
124	0x3d88699d	0.06660769
125	0xbd8fd3d9	-0.070228286
126	0x3da33db2	0.07970752
127	0x3c79fca8	0.015257992
128	0xbd0305d1	-0.03198797
129	0x3c4a0f4d	0.01233275
130	0xbd3a22b0	-0.045443237
131	0x3e124b42	0.14286521
132	0x3d27a5f4	0.04092975
133	0x3d331e18	0.04372987
134	0x3de4dd7e	0.11175059
135	0xbd8cc466	-0.068733975
136	0x3e0c5793	0.13705282
137	0x3dc40e36	0.09573023
138	0xbd0a4008	-0.03375247
139	0xbcecbe09	-0.02889921
140	0x3d8d5312	0.0690061
141	0x3ceb8c76	0.0287535
142	0x3e0cb6ee	0.13741657
143	0x3d60a468	0.05484429
144	0x3dba9f08	0.09112364
145	0xbd5905ad	-0.05298393
146	0xbd7d04bd	-0.061772097
147	0x3e09e72c	0.13467091
148	0x3e0f8b3f	0.14017962
149	0xbd68f2b2	-0.056872077
150	0xbd8dd397	-0.06925123
151	0xbc54a2bf	-0.012978255
152	0x3d57999b	0.052636724
153	0x3d18acc4	0.037274137
154	0x3be2fb06	0.006926897
155	0xbca51404	-0.020151146
156	0xbdb19464	-0.086708814
157	0xbc03a6ee	-0.008035405
158	0x3e04056a	0.1289269
159	0x3d7165d5	0.058935005
160	0x3d247a9c	0.040155992
161	0x3dd966b7	0.106152944
162	0x3ca12219	0.01966958
163	0x3da16189	0.078799315
164	0x3badcf04	0.005304219
165	0xbb81f7fa	-0.0039663287
166	0x3b7c4061	0.0038490521
167	0xbd8e3c92	-0.069451466
168	0x3d83e88d	0.0644084
169	0xbd4be26e	-0.049776487
170	0xbd3ec91c	-0.04657851
171	0x3d4638f9	0.048394177
172	0x3cc37228	0.023858145
173	0xba8d7b2f	-0.0010794158
174	0x3e40b5cd	0.18819351
175	0x3e1d87de	0.1538386
176	0x3d425712	0.047446318
177	0x3bd957f4	0.0066327993
178	0xbc62aabd	-0.0138346525
179	0x3e0bc5f4	0.13649732
180	0x3e38578e	0.1800215
181	0x3db920e5	0.09039477
182	0x3c1717de	0.009221999
183	0x3c2f731e	0.010708598
184	0xbd0c7e46	-0.03430011
185	0x3d9c8734	0.076429754
186	0xbc451dad	-0.012031001
187	0xbdbb1e78	-0.09136671
188	0xbd99f379	-0.07517142
189	0x3d089ac5	0.033350725
190	0x3e010301	0.12598802
191	0x3af20872	0.0018465652
192	0x3d8855dc	0.066570014
193	0xbcef5391	-0.029214652
194	0x3d47555d	0.048665393
195	0x3d84df4f	0.06487905
196	0x3dbab8dc	0.091172904
197	0xbd9f6443	-0.07782795
198	0x3c842ded	0.01613518
199	0x3dd1febc	0.10253665
200	0x3d1dacca	0.038494863
201	0xbd675986	-0.05648186
202	0x3da74dba	0.08169122
203	0xbd568aaa	-0.052378334
204	0xbd8f9a0f	-0.07011806
205	0xbcf80163	-0.030274099
206	0xbbdaaad9	-0.0066731987
207	0xbc253bae	-0.0100850295
208	0xba9bf26a	-0.0011897807
209	0x3d81cf9f	0.06338429
210	0xbcc6e3bd	-0.024278516
211	0x3d8779c4	0.06615022
212	0x3bc1c2ab	0.005913099
213	0x3ddb4459	0.10706396
214	0xbc5d1d6c	-0.013495784
215	0x3df86682	0.12128927
216	0x3d79ac83	0.060955536
217	0xbc30f012	-0.010799425
218	0xbcd7b6ad	-0.026332224
219	0xbd961f82	-0.073302284
220	0x3c884607	0.016634954
221	0xbd9061c6	-0.07049899
222	0xbde76f2a	-0.113005
223	0x3c55c758	0.013048016
224	0x3d89f789	0.06736667
225	0xbd8397cd	-0.06425438
226	0x3dc1ebcd	0.094688036
227	0xbd050218	-0.0324727
228	0x3e24d9ad	0.16098662
229	0x3d53412a	0.051575817
230	0x3ccbd520	0.0248819
231	0x3c9cfca3	0.019163435
232	0xbded3c31	-0.11583746
233	0x3d084dee	0.033277445
234	0xbde40993	-0.11134639
235	0xbd83088a	-0.06398113
236	0xbc0dbeec	-0.008651476
237	0x3c8d6df8	0.017264351
238	0x3ce52113	0.027969873
239	0x3d8c10af	0.0683912
240	0x3c02926a	0.007969478
241	0x3d18004e	0.037109666
242	0x3da4a2a1	0.080388315
243	0xbd413c49	-0.047176633
244	0xbd2ef2ed	-0.04271214
245	0x3db0bd29	0.086298294
246	0xbcbc8f25	-0.023017475
247	0x3d48d6c0	0.049032927
248	0x3c2ee081	0.010673643
249	0x3ca6bb45	0.020352969
250	0xbd556987	-0.05210259
251	0xbd717a10	-0.0589543
252	0xbcc12435	-0.023576835
253	0x3d4c0f3a	0.04981921
254	0x3d5348da	0.05158315
255	0x3e00706e	0.12542889

sequential/conv2d_2/Conv2D f4 [64, 3, 3, 64]
0	0xbcc326d0	-0.023822218
1	0xbd7aa230	-0.06118983
2	0x3baca59b	0.005268765
3	0xbd56d0e2	-0.0524453
4	0xbd7a7683	-0.061148178
5	0xbd81f779	-0.0634603
6	0xbd5bf238	-0.053697795
7	0xbd012d7c	-0.031537518
8	0xbcba0820	-0.022708952
9	0xbdb6378c	-0.088973135
10	0xbd10c249	-0.035341535
11	0xbdb1141e	-0.08646415
12	0x3d46fbc5	0.04857995
13	0xbdc49a3f	-0.095997326
14	0xbd66324b	-0.056200307
15	0xbbd7023c	-0.0065615457
16	0xbc529501	-0.012852908
17	0x3d593062	0.053024657
18	0xbcf4f850	-0.02990356
19	0xbd1f7e48	-0.03893879
20	0x3d61a047	0.055084493
21	0xbd44d81c	-0.04805766
22	0xbd71fe64	-0.059080496
23	0x3d69af3b	0.05705188
24	0xbd8079f6	-0.06273262
25	0xbd164d3c	-0.03669475
26	0xbd1678df	-0.036736365
27	0x3d56e558	0.052464813
28	0xbc1c3b23	-0.009535584
29	0xbdd02ba5	-0.101645745
30	0xbdf64a03	-0.12025835
31	0x3d27c2e9	0.040957365
32	0xbd0643f7	-0.03277966
33	0x3b6c3626	0.0036043017
34	0x3d5af6e3	0.053458106
35	0xbcd0915c	-0.025459938
36	0xbd9bd899	-0.07609672
37	0xbd250b37	-0.0402939
38	0x3cd0843a	0.025453676
39	0xbd0a045b	-0.03369556
40	0xbd651ad5	-0.055933792
41	0xbd341cfc	-0.043972954
42	0xbd904954	-0.07045236
43	0xbd005496	-0.031330667
44	0xbdaca624	-0.08430126
45	0xbd54a005	-0.05191042
46	0xbd0d9351	-0.03456432
47	0xbe0e3e0b	-0.13890855
48	0x3da7606b	0.08172687
49	0xbda82041	-0.08209277
50	0xbe06eb6a	-0.13175741
51	0x3cbf02ac	0.023316704
52	0x3b4784cb	0.003044414
53	0x3d3299e3	0.04360379
54	0x3cf422ae	0.029801693
55	0x3bacd872	0.0052748257
56	0xbd86e9a0	-0.06587529
57	0xbd9a1546	-0.07523589
58	0xbd88b7d5	-0.06675688
59	0xbc509b85	-0.012732391
60	0xbc551481	-0.013005377
61	0xbc93dea7	-0.018050505
62	0xbd781e30	-0.060575664
63	0xbcdfffd6	-0.027343672
64	0x3cc44b3c	0.023961656
65	0xbdc785ce	-0.09742318
66	0x3da1478c	0.078749746
67	0xbcc874e1	-0.024469795
68	0x3d472525	0.04861941
69	0x3cc0f7dd	0.02355569
70	0xbd0cd2bc	-0.03438066
71	0xbd293b8f	-0.041316565
72	0x3d04887b	0.03235672
73	0xbcb7a743	-0.022418624
74	0xbd3c7030	-0.046005428
75	0x3c9f148a	0.019418973
76	0xbda8a37c	-0.08234307
77	0x3d6ec814	0.058296278
78	0x3d31d19e	0.043412797
79	0xbd718d6e	-0.05897277
80	0xbcde7ee8	-0.027160123
81	0xbc1d4031	-0.009597824
82	0x3c63b061	0.0138970325
83	0x3d8ad9cf	0.06779825
84	0xbd5398dc	-0.05165945
85	0xbde7b3ee	-0.11313616
86	0x3d8f41de	0.06994985
87	0x3d5b2431	0.05350131
88	0xbca7dcb7	-0.020490987
89	0xbdc78dbf	-0.09743833
90	0xbcdf0c55	-0.02722756
91	0x3d25af0c	0.04045014
92	0xbc9037cd	-0.017604733
93	0xbd76d633	-0.06026287
94	0x3a4c4fb0	0.0007793857
95	0x3b4c5cfd	0.0031183355
96	0x3d87ce42	0.066311374
97	0xbd260a9f	-0.040537473
98	0x3d5ef635	0.05443402
99	0x3c2fedd9	0.01073786
100	0xbd51c7bf	-0.051215883
101	0x3d12bf1d	0.03582679
102	0x3d09b099	0.033615682
103	0xbdae52e5	-0.085119046
104	0xbbe11990	-0.0068695024
105	0xbd9bf581	-0.076151855
106	0xbdbb0b88	-0.09133059
107	0x3d8baba9	0.06819851
108	0xbd0de400	-0.034641266
109	0xbd2187a1	-0.039435986
110	0x3b2af9b0	0.0026088767
111	0xbd9c1cad	-0.07622657
112	0xbd2026fd	-0.039099682
113	0x3d7395ba	0.059468962
114	0xbda2668f	-0.07929718
115	0xbd9ddd63	-0.07708242
116	0xbd36df98	-0.04464683
117	0xbd221c69	-0.039577875
118	0x3d34bbb5	0.044124324
119	0xbddf55ce	-0.10905038
120	0x3b821492	0.0039697373
121	0xbccdab5e	-0.025106128
122	0xbdcc5a01	-0.099781044
123	0x3dbd3fc7	0.0924068
124	0xbd4f06d3	-0.050543617
125	0xbc1fa7f0	-0.009744629
126	0xbd43ec5b	-0.047832828
127	0x3d968826	0.07350187
128	0x3dd58092	0.104249135
129	0x3cff8eb7	0.031195981
130	0xbba9c901	-0.0051814322
131	0x3c0b38ce	0.00849743
132	0xbd29a3c5	-0.04141595
133	0x3cd0d880	0.02549386
134	0xbd4a0624	-0.049322262
135	0x3d47fb26	0.0488235
136	0xbca88d2b	-0.020575127
137	0x3d81fb4b	0.063467585
138	0xbd7273b5	-0.059192378
139	0x3e049c0b	0.1295015
140	0xbcdd8b07	-0.027043832
141	0x3da20bf8	0.07912439
142	0xbd1f1134	-0.038834766
143	0x3da6f6f4	0.08152571
144	0xbda8c2ca	-0.08240278
145	0x3d4b2882	0.049599178
146	0x3caf0c0c	0.02136805
147	0x3c4f763c	0.012662467
148	0x3c89e0b4	0.01683078
149	0xbd02e724	-0.031958714
150	0x3d997e15	0.07494751
151	0x3d88d2dd	0.06680844
152	0x3db3ee66	0.08785705
153	0xbd05e73c	-0.032691225
154	0xbd265b38	-0.040614337
155	0x3cc646c4	0.024203666
156	0x3cc7ed12	0.024405036
157	0xbd005cd4	-0.031338528
158	0x3bd6bde3	0.006553398
159	0xbc37bafd	-0.011214015
160	0x3d8db9ea	0.06920226
161	0x3d44bfd9	0.048034523
162	0x3d2abc98	0.041683763
163	0x3ca795af	0.020457117
164	0x3c86700b	0.016410848
165	0xbcec823f	-0.0288707
166	0x3ce37db2	0.027769897
167	0xbd8d3c3b	-0.06896254
168	0xbd108f17	-0.03529271
169	0x3c7c85c7	0.015412754
170	0x3d54463c	0.051824793
171	0x3c4e90ed	0.012607795
172	0x3ce86823	0.028369969
173	0x3c41c081	0.011825682
174	0xbcd27252	-0.025689278
175	0x3beb0849	0.0071726185
176	0xbcc6881c	-0.024234824
177	0x3d98b0c8	0.07455593
178	0x3c688d0b	0.0141937835
179	0xbc071ed0	-0.008247092
180	0x3d650dcd	0.055921365
181	0xbda0a11d	-0.0784323
182	0x3de3ac3b	0.11116835
183	0xbd22116a	-0.03956739
184	0xbd735b70	-0.059413373
185	0x3d9c22d9	0.07623834
186	0xbc2171f8	-0.009853832
187	0x3dc4a761	0.096022375
188	0x3adfedff	0.0017084478
189	0x3d8f4a9c	0.069966525
190	0x3caf5562	0.021403018
191	0x3c8b7799	0.017024802
192	0x3db37604	0.08762744
193	0xbc3a6f85	-0.011379127
194	0x3ca4614d	0.020065928
195	0x3e072a83	0.1319981
196	0xbd61baf7	-0.055109944
197	0xbd38ef42	-0.04515005
198	0xbcf2fc29	-0.029661255
199	0x3db96420	0.090523005
200	0xbcff0c50	-0.0311338
201	0xb91804b8	-0.00014497607
202	0x3c8fb9aa	0.017544586
203	0xbd08cbd3	-0.033397507
204	0xbc48ee87	-0.012263901
205	0x3ccddd9c	0.025130086
206	0x3d9636bf	0.07334661
207	0x3d9175db	0.07102557
208	0x3c230580	0.009950042
209	0x3c8e077c	0.017337553
210	0xbd0bf3bb	-0.034167986
211	0xbc6a330b	-0.014294396
212	0xbd2b8af3	-0.04188056
213	0x3d9a03cd	0.07520256
214	0xbc8bd223	-0.017067974
215	0x3d18a2e9	0.03726474
216	0x3cfcf014	0.030876197
217	0xbbc683a7	-0.0060581747
218	0x3cd9b022	0.026573244
219	0x3def37bb	0.116805516
220	0x3d167fd3	0.036742996
221	0xbc6d5afe	-0.014487026
222	0xbd8f6f17	-0.070036106
223	0x3d087b82	0.03332091
224	0x3db9d1bc	0.09073207
225	0x3d09ec66	0.033672713
226	0xbcde46c2	-0.02713335
227	0x3d6a2e6a	0.05717317
228	0x3d781334	0.06056519
229	0x3d798d95	0.06092604
230	0xbd2c623a	-0.042085864
231	0x3dac425d	0.08411095
232	0x3b4a1b6b	0.0030839096
233	0x3c18217d	0.009285328
234	0x3d2418c5	0.040062685
235	0x3c474476	0.012162318
236	0xbc380980	-0.011232734
237	0xbd2cf94d	-0.04222994
238	0x3c8d2c97	0.017233176
239	0x3ddc37a6	0.107528016
240	0xbcf9e3ac	-0.03050407
241	0x3dab07f0	0.08351123
242	0x3dbbf510	0.09177601
243	0xbc465414	-0.012105007
244	0x3d7cf069	0.06175271
245	0x3d59726d	0.05308764
246	0xbd631f88	-0.055449992
247	0x3e005522	0.12532476
248	0x3d05694d	0.032571126
249	0x3d287547	0.04112747
250	0x3cf7f47c	0.030267946
251	0x3cce1c32	0.025159929
252	0x3bb46833	0.0055055856
253	0x3df304ab	0.11866125
254	0x3d736a4d	0.05942755
255	0x3d4e4d2d	0.05036657
